model/model.pth (torch, 16799 bytes, 4 tensors)

linear1.weight f4 [256, 11]
0.27775407 0.17775851 0.0042850613 0.005706649 0.08738802 -0.07006041 0.2739918 -0.040611126
0.14091146 0.11529578 0.050824657 0.16117391 0.25683683 -0.05924599 -0.08916509 0.02766946
-0.20128101 -0.110277444 -0.1825195 0.09402016 -0.23835883 -0.035395175 -0.13330199 -0.1962431
0.07358278 0.27176455 -0.25108063 -0.2587018 -0.031201594 0.2714509 0.080897845 0.024152808
-0.049882587 -0.033225738 -0.29135257 -0.024650633 0.089654125 -0.044771723 0.04873038 -0.22325271
-0.08599949 -0.17474316 0.21252935 -0.030425567 0.26446947 0.036352243 -0.12912089 -0.29582855
0.20997174 -0.12745269 -0.20631151 -0.18282494 0.22536305 -0.05283381 0.14333326 -0.22655192
-0.1280775 0.3091011 0.06089494 0.0526763 0.07102448 -0.22913659 -0.19279718 -0.022362912
0.29660556 0.110819146 0.26398045 -0.14509161 -0.13019738 -0.119631454 0.038022257 0.24992839
-0.2081629 -0.2725611 0.25210437 -0.24787505 -0.16602327 -0.008961946 0.0698365 -0.22810361
0.011594176 -0.07306898 -0.09039657 -0.28273758 0.1272589 0.0517956 0.06621289 -0.09944028
-0.27888978 0.058994245 -0.08525611 0.012902823 0.20095773 -0.21733303 -0.054565962 -0.20934907
0.15268318 -0.15838197 0.16627057 0.10339738 0.1529203 0.29870036 -0.26340652 -0.23315044
-0.07925954 0.29077464 -0.28337958 0.22689483 0.021900969 -0.20785597 -0.024512053 -0.112721644
0.1785874 -0.16335258 0.1760579 0.29794386 0.20345049 0.122689195 0.05273462 -0.2959277
0.29846123 0.28075504 -0.12701446 -0.026143007 0.19302067 0.116307415 -0.08475343 -0.25131732
0.22244896 -0.25611404 0.16878529 -0.2364909 0.24542245 0.09210399 -0.16072549 -0.2672368
-0.14006509 -0.26446533 0.09193633 -0.10972156 -0.18070184 0.17143852 0.22169043 -0.24153885
0.18874495 0.2034033 -0.097390436 -0.22718316 0.27473933 -0.08388079 0.11934949 -0.10276649
0.03725312 0.12898108 0.25985804 -0.11564762 0.18662111 0.0038206205 0.13285127 0.108956315
-0.0026825587 -0.044134215 0.101142675 0.18508583 0.050428268 0.1656422 -0.026738824 -0.1566525
0.10541739 -0.06635171 0.23391676 0.1895591 -0.03937466 0.098201334 0.3134203 -0.2274975
-0.25332952 -0.11688305 0.110625565 -0.050455555 -0.011394731 -0.060832992 -0.060865227 0.15116678
0.14929724 0.12938981 0.025264667 0.28283986 0.031264424 0.13159531 0.19086315 -0.1074647
-0.27549705 -0.06339164 -0.29865044 -0.29251564 -0.09864376 0.21493551 0.27837515 0.13757314
-0.18290341 -0.14834595 -0.021271888 -0.05404493 0.07927003 0.30630502 -0.18410055 -0.11618007
-0.06697073 -0.1265415 0.19561456 -0.034530092 -0.27539718 0.18983822 -0.035802003 0.028096676
-0.22819683 0.0244279 0.23282759 0.2381307 -0.09126456 0.0048304577 -0.2080902 -0.0804879
0.179239 0.086432666 0.111303024 0.1967775 -0.24826041 0.14327295 0.15553033 0.120842084
0.108442456 -0.008806321 0.0798472 0.036572948 0.08242745 0.10551788 0.28407 -0.022188962
-0.25483763 -0.19447666 -0.2624861 0.052351195 0.013001851 -0.13693812 0.03028558 -0.061315842
0.21454737 -0.2576898 0.042148817 -0.10371502 -0.120141454 0.13822621 -0.07703258 -0.29368427
00000000: c835 8e3e 5406 363e b369 8c3b d7fe ba3b
00000010: 7df8 b23d d57b 8fbd a748 8c3e da57 26bd
00000020: 184b 103e 3220 ec3d 842d 503d c60a 253e
00000030: 1e80 833e ecab 72bd 309c b6bd 10ab e23c
00000040: 9c1c 4ebe 24d9 e1bd 64e6 3abe a48d c03d
00000050: 5614 74be 88fa 10bd 5180 08be f4f3 48be
00000060: 92b2 963d b924 8b3e a48d 80be 9074 84be
00000070: 7c9a ffbc 9dfb 8a3e c5ad a53d 1cdc c53c
00000080: af51 4cbd b617 08bd 2a2c 95be 20f0 c9bc
00000090: 959c b73d 8e62 37bd 8299 473d 5c9c 64be
000000a0: 8020 b0bd dfef 32be 4ba1 593e 0a3f f9bc
000000b0: 8b68 873e 17e6 143d 4438 04be d776 97be
000000c0: d502 573e f582 02be 5343 53be 7636 3bbe
000000d0: 92c5 663e 4468 58bd f4c5 123e 3afd 67be
000000e0: c026 03be 8042 9e3e f96c 793d 1bc3 573d
000000f0: 4875 913d c8a2 6abe a06c 45be 6d32 b7bc
00000100: afdc 973e 26f5 e23d 7228 873e e592 14be
00000110: 7652 05be 5601 f5bd 3abd 1b3d 3aed 7f3e
00000120: a828 55be 218d 8bbe d313 813e f5d2 7dbe
00000130: 0102 2abe 20d5 12bc 7006 8f3d fe93 69be
00000140: 80f5 3d3c 30a5 95bd d621 b9bd fbc2 90be
00000150: 2850 023e a027 543d a09a 873d 58a7 cbbd
00000160: a4ca 8ebe f3a3 713d c19a aebd 5d66 533c
00000170: ddc7 4d3e 8d8c 5ebe 8f80 5fbd 9a5f 56be
00000180: fb58 1c3e e22e 22be d542 2a3e 01c2 d33d
00000190: 2497 1c3e 41ef 983e 38dd 86be fdbe 6ebe
000001a0: d352 a2bd 6ae0 943e 2117 91be 1e57 683e
000001b0: a969 b33c 32d8 54be 80cd c8bc 9bda e6bd
000001c0: 9edf 363e e645 27be 8648 343e 198c 983e
000001d0: 5355 503e 7944 fb3d 4200 583d d683 97be
000001e0: e9cf 983e 20bf 8f3e 1410 02be dc29 d6bc
000001f0: 36a7 453e 9532 ee3d 3593 adbd aaac 80be
00000200: a9c9 633e 6121 83be 0dd6 2c3e ac2a 72be
00000210: 0650 7b3e 04a1 bc3d 3995 24be 43d3 88be
00000220: 396d 0fbe 0068 87be 1d49 bc3d b2b5 e0bd
00000230: e709 39be 948d 2f3e d102 633e f655 77be
00000240: 5b46 413e f448 503e a374 c7bd b4a2 68be
00000250: a2aa 8c3e b1c9 abbd 816d f43d 3d77 d2bd
00000260: ba96 183d 9e13 043e 1d0c 853e a9d8 ecbd
00000270: 9b19 3f3e 6063 7a3b 2a0a 083e 7d24 df3d
00000280: decd 2fbb 14c6 34bd e423 cf3d 2487 3d3e
00000290: df8d 4e3d 1c9e 293e 610b dbbc 8369 20be
000002a0: 13e5 d73d 68e3 87bd e087 6f3e c81b 423e
000002b0: 5347 21bd c81d c93d a078 a03e 1bf5 68be
000002c0: 68b4 81be 6160 efbd a88f e23d 7caa 4ebd
000002d0: f7b0 3abc 042c 79bd d14d 79bd 77cb 1a3e
000002e0: 60e1 183e c37e 043e d9f7 ce3c 63d0 903e
000002f0: 200f 003d ecc0 063e a171 433e 7416 dcbd
00000300: f30d 8dbe 7ad3 81bd b6e8 98be 9cc4 95be
00000310: bd05 cabd 0e18 5c3e 3087 8e3e f9df 0c3e
00000320: 084b 3bbe 00e8 17be 6242 aebc 375e 5dbd
00000330: 5358 a23d 03d4 9c3e db84 3cbe d1ef edbd
00000340: f327 89bd 1894 01be 2f4f 483e 6d6f 0dbd
00000350: dc00 8dbe f364 423e 1fa5 12bd 002b e63c
00000360: 6eac 69be 051d c83c 5b6a 6e3e 89d8 733e
00000370: eae8 babd d148 9e3b 9915 55be d7d6 a4bd
00000380: 6e8a 373e 9c03 b13d d7f2 e33d 0a80 493e
00000390: fa37 7ebe 25b6 123e 5843 1f3e 0e7c f73d
000003a0: 1417 de3d 6348 10bc ee86 a33d 84cd 153d
000003b0: b9cf a83d c219 d83d 9f71 913e a0c5 b5bc
000003c0: 147a 82be e424 47be 9464 86be 356e 563d
000003d0: b705 553c 8239 0cbe 7719 f83c 5226 7bbd
000003e0: 4eb2 5b3e ebef 83be 3da4 2c3d 8a68 d4bd
000003f0: b90c f6bd 2c8b 0d3e 42c3 9dbd c95d 96be

linear1.bias f4 [256]
0.27979916 -0.28405383 0.068662964 -0.08955745 -0.18747832 0.22424924 -0.114129744 -0.26056594
0.2399939 -0.07329413 0.2009477 -0.29347628 -0.21533175 0.2953376 -0.0005231547 -0.059337072
-0.17528847 -0.00416627 0.1458448 -0.093915015 0.23777504 -0.21594092 -0.0029405062 0.08288559
0.29145336 -0.1695525 0.17809162 -0.15347749 -0.1214306 0.0060770228 0.22172388 0.0067773373
-0.19121529 -0.21869178 -0.19419175 -0.07575146 -0.23431431 -0.18698771 -0.094232515 0.22449408
-0.24883324 0.28091848 -0.16356207 -0.17230889 -0.04687487 0.2889227 -0.05582962 0.28954357
-0.060451187 -0.18779127 0.076185115 -0.21817617 0.1860752 -0.18359615 0.04649566 -0.16681544
-0.32289997 0.07338665 -0.08834753 0.03520789 -0.19371228 0.10568992 0.09612897 0.13840108
-0.022979261 0.20486638 0.07990282 0.014981398 -0.14533255 -0.058619965 -0.28372952 -0.16435167
0.16573685 0.108569816 -0.2356268 -0.16631685 -0.14318505 0.333027 0.18448304 -0.017742278
-0.23019531 0.014612295 -0.119612895 -0.064655356 -0.1857703 -0.24599473 -0.08106566 0.18437792
-0.129864 -0.19864672 -0.041782774 0.010785527 0.06816584 -0.12742837 0.011421194 0.32211772
-0.11248566 0.26338124 0.19901948 -0.09248602 0.24010934 -0.07579108 -0.19028063 0.29187387
0.3008873 -0.26542935 -0.09178159 -0.1128365 0.06384263 -0.20021544 -0.099038966 0.22994745
0.0994232 -0.13836458 0.1050909 -0.20220807 0.21433462 0.06027447 -0.32700655 -0.11035889
0.119431764 0.059986543 -0.11509424 0.17612597 -0.09408705 -0.0072353086 -0.28945342 0.2662865
0.26909733 -0.054028045 -0.17504624 -0.020712698 0.17969728 -0.017878847 0.16166827 -0.13859771
0.25152788 0.011453904 0.085031494 -0.042696554 -0.1025991 -0.05554477 -0.2630512 -0.084930114
0.07364042 0.30328864 -0.2824283 -0.2038873 -0.05108172 -0.2309575 -0.050093032 -0.23322101
0.09588005 0.1635377 -0.098901406 -0.27800098 -0.08823325 -0.19575912 -0.24250591 0.017517457
0.19416702 -0.20142004 0.24435507 -0.00467469 0.018172339 0.28715253 -0.293729 -0.24222495
-0.134891 -0.02846871 -0.016066682 -0.19295324 -0.30957782 -0.019407962 0.16059698 0.057211723
0.34638453 -0.23306702 0.024612378 0.30618373 -0.18117224 0.112529635 0.16522332 0.034638654
0.25547823 -0.20338286 0.07952216 0.264282 -0.28219673 0.17586389 0.04188475 0.27044043
0.1277582 0.028091224 -0.020200549 0.14751905 -0.036895677 0.0019387011 -0.07955366 -0.06154323
-0.21646291 0.10198401 -0.23744386 0.21649854 0.14008416 -0.10822377 -0.23317912 0.21189977
0.024425909 -0.2521127 0.33073673 0.09382696 0.26372212 0.15363728 -0.21042074 -0.15304376
-0.23118241 -0.27463126 -0.034262218 0.23011416 -0.0213551 -0.25320292 0.22143097 -0.21277454
-0.05473902 0.28891915 0.25911063 -0.1913151 -0.2235047 0.17257714 0.0050059143 -0.2885764
0.042582817 0.2911891 -0.23261532 -0.008259594 -0.0485456 -0.29145265 0.036890164 0.042758983
0.14188516 0.19957319 -0.017107377 0.050650824 -0.08690402 0.21006472 0.00996544 -0.30484217
0.25232127 -0.15510291 -0.104252346 -0.2665666 -0.2710375 -0.21557678 -0.28244877 -0.09886856
00000000: d641 8f3e 816f 91be 2b9f 8c3d e569 b7bd
00000010: 51fa 3fbe 98a1 653e dbbc e9bd e668 85be
00000020: f6c0 753e 3c1b 96bd 3cc5 4d3e 8642 96be
00000030: ed7f 5cbe 7d36 973e 5124 09ba 6e0b 73bd
00000040: d27e 33be 3585 88bb 5758 153e 8456 c0bd
00000050: 4d7b 733e 9e1f 5dbe 82b5 40bb ecbf a93d
00000060: 6039 953e 2c9f 2dbe a65d 363e 3429 1dbe
00000070: 9bb0 f8bd c321 c73b 960b 633e 6d14 de3b
00000080: f1cd 43be bdf0 5fbe 34da 46be 9523 9bbd
00000090: 17f0 6fbe b579 3fbe fafc c0bd c7e1 653e
000000a0: 24ce 7ebe 8cd4 8f3e d17c 27be be71 30be
000000b0: ddff 3fbd aded 933e 9aad 64bd 0e3f 943e
000000c0: aa9b 77bd 5b4c 40be f106 9c3d 9369 5fbe
000000d0: 7f8a 3e3e a100 3cbe 3c72 3e3d abd1 2abe
000000e0: 2553 a5be bd4b 963d 8def b4bd 2636 103d
000000f0: 835c 46be f573 d83d 44df c43d 03b9 0d3e
00000100: 013f bcbc 7ec8 513e 17a4 a33d 8a74 753c
00000110: 0ed2 14be 7d1b 70bd ff44 91be ce4b 28be
00000120: ecb6 293e da59 de3d 2748 71be f74e 2abe
00000130: 1a9f 12be 8482 aa3e 1fe9 3c3e 4158 91bc
00000140: 52b8 6bbe 6868 6f3c 9bf7 f4bd 076a 84bd
00000150: 923a 3ebe 0be6 7bbe c105 a6bd 91cd 3c3e
00000160: 12fb 04be 0c6a 4bbe 6a24 2bbd c7b5 303c
00000170: 889a 8b3d 957c 02be f61f 3b3c 9dec a43e
00000180: e25e e6bd e8d9 863e c3cb 4b3e 4f69 bdbd
00000190: 39df 753e 5b38 9bbd edd8 42be 7e70 953e
000001a0: e60d 9a3e 5be6 87be fcf7 bbbd d316 e7bd
000001b0: edbf 823d 4705 4dbe f1d4 cabd 5877 6b3e
000001c0: 649e cb3d 72af 0dbe e639 d73d a20f 4fbe
000001d0: 897a 5b3e 5de2 763d 676d a7be d703 e2bd
000001e0: a498 f43d 73b4 753d 87b6 ebbd 5e5a 343e
000001f0: b6b0 c0bd 2b16 edbb 3d33 94be b456 883e
00000200: 20c7 893e 834c 5dbd 523f 33be adad a9bc
00000210: 9002 383e a976 92bc 5e8c 253e 8fec 0dbe
00000220: 43c8 803e 28a9 3b3c fe24 ae3d 95e2 2ebd
00000230: 7a1f d2bd ea82 63bd a6ae 86be d7ef adbd
00000240: cad0 963d a648 9b3e 719a 90be d5c7 50be
00000250: 113b 51bd 1f80 6cbe 5a2e 4dbd 7dd1 6ebe
00000260: c25c c43d 6d76 273e d28c cabd 2556 8ebe
00000270: a2b3 b4bd 1475 48be 7853 78be c580 8f3c
00000280: b8d3 463e 0e41 4ebe 3738 7a3e 242e 99bb
00000290: 28de 943c a805 933e a663 96be d109 78be
000002a0: de20 0abe 3637 e9bc 469e 83bc 8995 45be
000002b0: fc80 9ebe 72fd 9ebc 8973 243e d756 6a3d
000002c0: 5059 b13e 1fa9 6ebe e69f c93c 1dc4 9c3e
000002d0: 3785 39be f075 e63d 4d30 293e 43e1 0d3d
000002e0: 0bce 823e 9943 50be 84dc a23d f84f 873e
000002f0: 177c 90be aa15 343e 588f 2b3d 2b77 8a3e
00000300: 0cd3 023e 911f e63c 9f7b a5bc 3c0f 173e
00000310: ec1f 17bd 041c fe3a 07ed a2bd c114 7cbd
00000320: 74a8 5dbe fedc d03d 7c24 73be cbb1 5d3e
00000330: 3972 0f3e 6da4 ddbd 82c6 6ebe 41fc 583e
00000340: d818 c83c ea14 81be 5356 a93e 5928 c03d
00000350: 9606 873e 1753 1d3e 8978 57be 81b7 1cbe
00000360: 15bb 6cbe 789c 8cbe 8a56 0cbd 0ca3 6b3e
00000370: e4f0 aebc d0a3 81be cdbe 623e 92e1 59be
00000380: 0636 60bd 36ed 933e 26aa 843e 1be8 43be
00000390: 6bde 64be 10b8 303e a708 a43b 49c0 93be
000003a0: 526b 2e3d bd16 953e b632 6ebe 4053 07bc
000003b0: c0d7 46bd 4839 95be 241a 173d 0b24 2f3d
000003c0: 584a 113e ea5c 4c3e c524 8cbc 3d77 4f3d
000003d0: bcfa b1bd 351b 573e 1646 233c 4614 9cbe
000003e0: 4130 813e 4cd3 1ebe 4182 d5bd 6b7b 88be
000003f0: 6dc5 8abe 29c0 5cbe 209d 90be 997b cabd

linear2.weight f4 [3, 256]
-0.06894757 0.014838465 -0.004537254 -0.0016278733 -0.0062150583 -0.062213693 0.031392157 -0.0400721
0.018521069 -0.019036397 -0.05017458 0.036058042 0.020421999 0.00951146 0.0013903686 -0.044953953
0.06373495 0.016882375 -0.031949725 -0.050602097 0.04285642 -0.018273948 0.012284528 -0.02989692
-0.085135244 0.02038776 -0.04558697 -0.08316312 0.06912748 0.06558658 0.025900396 -0.029688632
-0.07953677 0.0095442375 -0.05815006 -0.045681044 0.027497746 0.019515105 -0.085462324 0.04248966
-0.0076922243 -0.029914176 0.003915742 -0.014249259 -0.07318785 -0.042016435 0.031349838 -0.028906321
-0.04778808 -0.058445748 0.02649999 -0.05133928 0.010839882 -0.011273446 -0.06460198 -0.04777198
0.040230613 0.02272454 0.04035904 0.021704309 0.046493743 -0.068937734 0.03337529 -0.015165914
0.043104738 -0.03486844 0.007903615 0.022954548 0.042070117 -0.019232642 0.020344622 0.03881114
-0.0454169 -0.049111415 0.009677214 -0.06854196 0.02355323 -0.029514154 -0.05396412 -0.0262424
0.024509314 0.025453899 -0.025798231 -2.0653824e-05 -0.015954264 -0.029954642 0.017921237 -0.09786995
0.06174774 -0.0200424 0.040798645 -0.031154146 -0.06176481 -0.046705224 0.04778207 -0.043395966
-0.06288108 0.005686174 0.01067843 -0.05108224 0.028104205 0.061676558 -0.005916469 -0.06625146
-0.0085116085 0.012271034 -0.041622676 0.056924473 0.011308895 -0.044164654 -0.028222723 -0.073713176
0.02977276 -0.019673355 0.018317323 0.06730516 -0.07311519 -0.08308805 0.045500442 -0.071894586
0.030305713 -0.030770103 0.022572622 -0.027149694 -0.028956732 -0.039376855 -0.018439164 -0.073059134
-0.06400891 -0.01261211 -0.0039998707 -0.042406388 0.02023809 -0.041514453 0.01267717 0.034308724
0.010165777 -0.06914276 0.0058803363 -0.0015972679 0.024207931 -0.0135513265 0.038029015 0.041562427
0.021385804 -0.059108164 -0.00061709434 -0.03464088 0.09352772 -0.006192384 0.020943493 -0.005895105
-0.007438565 -0.02884675 0.09124393 0.03611288 0.019546025 0.050227307 0.023835942 -0.030206215
0.010514952 -0.0072567314 -0.05672129 0.020168822 0.03745549 -0.07586498 -0.023877928 0.015218751
-0.0068790796 0.027055033 -0.023094648 0.05129061 0.039903015 -0.06737641 0.046444748 -0.021528969
-0.034745395 0.053288404 -0.018400775 -0.015934993 0.021110095 0.059708983 0.0021845866 0.040419504
-0.020952526 -0.09871157 0.0193925 -0.0074111 0.05640758 0.032571837 -0.019706871 -0.0565466
0.032147873 -0.020138195 0.0002278529 -0.0038074767 -0.024038637 0.031958096 0.025882239 -0.02453655
-0.077807665 0.0108576855 0.0074187964 -0.059160545 0.038566068 -0.005138428 0.008176056 -0.008556555
-0.013637191 0.034685977 -0.040696424 -0.037596464 0.0116361035 0.048314486 -0.064238876 -0.01638593
0.007014893 -0.016049689 -0.083257124 -0.04899961 -0.016799774 -0.074868925 -0.076981574 0.024918107
0.081130505 0.034823652 0.028755298 -0.039044958 -0.008256631 -0.06390944 0.04224833 -0.042023975
-0.0319102 -0.075196594 -0.015531324 -0.029064285 -0.0686391 0.00017538224 0.00472895 -0.08767668
0.024629815 -0.061299782 -0.025926853 -0.0246423 -0.0058391904 -0.03835769 -0.001272893 0.010348468
-0.018684534 0.009673101 -0.039840557 0.016210206 0.0078050955 -0.020779217 -0.0523218 0.028428618
00000000: 6234 8dbd 081d 733c 3fad 94bb 5d5e d5ba
00000010: b0a7 cbbb c9d3 7ebd 1095 003d a422 24bd
00000020: 7fb9 973c 38f2 9bbc dc83 4dbd 99b1 133d
00000030: 094c a73c f4d5 1b3c 073d b63a a321 38bd
00000040: 7887 823d e84c 8a3c b7dd 02bd 2544 4fbd
00000050: 378a 2f3d 3fb3 95bc 0c45 493c 63ea f4bc
00000060: 635b aebd 3b04 a73c 67b9 3abd 6d51 aabd
00000070: b592 8d3d 4252 863d 112d d43c 9335 f3bc
00000080: 2de4 a2bd 6f5f 1c3c c22e 6ebd 0c1c 3bbd
00000090: f442 e13c 24de 9f3c df06 afbd a309 2e3d
000000a0: 0e0f fcbb 930e f5bc a04f 803b b975 69bc
000000b0: 83e3 95bd 6d19 2cbd b068 003d f3cc ecbc
000000c0: 6fbd 43bd cf64 6fbd 8216 d93c 2349 52bd
000000d0: c399 313c 42b4 38bc 0b4e 84bd 8dac 43bd
000000e0: dbc8 243d d128 ba3c 854f 253d 3ccd b13c
000000f0: 3970 3e3d 3a2f 8dbd 87b4 083d 747a 78bc
00000100: 988e 303d 36d2 0ebd 2a7e 013c 2d0b bc3c
00000110: b751 2c3d c68d 9dbc c4a9 a63c 6ef8 1e3d
00000120: 1207 3abd 0d29 49bd 2d8d 1e3c ba5f 8cbd
00000130: b4f2 c03c abc7 f1bc 7b09 5dbd 4dfa d6bc
00000140: c2c7 c83c b284 d03c d056 d3bc c041 adb7
00000150: 84b2 82bc 7063 f5bc 8fcf 923c 0a70 c8bd
00000160: 33eb 7c3d f62f a4bc 7b1c 273d fb36 ffbc
00000170: 19fd 7cbd fa4d 3fbd 22b7 433d f8bf 31bd
00000180: ccc7 80bd 1653 ba3b 95f4 2e3c 9c3b 51bd
00000190: ca3a e63c 8fa0 7c3d f0de c1bb d8ae 87bd
000001a0: 4674 0bbc 720c 493c 8a7c 2abd a329 693d
000001b0: f248 393c ffe5 34bd 5733 e7bc eff6 96bd
000001c0: 01e6 f33c 042a a1bc 360e 963c 4ad7 893d
000001d0: 6bbd 95bd 112a aabd ac5e 3a3d 783d 93bd
000001e0: b043 f83c 9511 fcbc 38ea b83c 0969 debc
000001f0: ab36 edbc a049 21bd bb0d 97bc 07a0 95bd
00000200: 1a17 83bd 06a3 4ebc 5911 83bb 52b2 2dbd
00000210: 5aca a53c 0f0b 2abd e8b3 4f3c 4e87 0c3d
00000220: 5c8e 263c b89a 8dbd d6af c03b 6b5b d1ba
00000230: b64f c63c 6206 5ebc 50c4 1b3d 5d3d 2a3d
00000240: 4831 af3c 671b 72bd 80c4 21ba 98e3 0dbd
00000250: 768b bf3d 7be9 cabb b091 ab3c ba2b c1bb
00000260: 35bf f3bb 0550 ecbc 19de ba3d 19eb 133d
00000270: fc1e a03c 26bb 4d3d 9843 c33c 0673 f7bc
00000280: e846 2c3c e0c9 edbb 9554 68bd 1639 a53c
00000290: ee6a 193d 195f 9bbd a59b c3bc 1158 793c
000002a0: e769 e1bb 84a2 dd3c fd30 bdbc 1a16 523d
000002b0: 5871 233d a5fc 89bd d93c 3e3d 855d b0bc
000002c0: 3051 0ebd f144 5a3d 39bd 96bc 1a8a 82bc
000002d0: 14ef ac3c 6891 743d 482b 0f3b ec8e 253d
000002e0: a2a4 abbc 4b29 cabd 05dd 9e3c d0d8 f2bb
000002f0: a20b 673d 0c6a 053d 4e70 a1bc 689d 67bd
00000300: 7dad 033d dbf8 a4bc cceb 6e39 dc86 79bb
00000310: adec c4bc 7ee6 023d fd06 d43c e000 c9bc
00000320: a059 9fbd 6fe4 313c 6019 f33b 5452 72bd
00000330: 74f7 1d3d 4260 a8bb ddf4 053c cb30 0cbc
00000340: 866e 5fbc e212 0e3d 4bb1 26bd c0fe 19bd
00000350: 5ba5 3e3c 69e5 453d ac8f 83bd c93b 86bc
00000360: 30dd e53b a37a 83bc b682 aabd d1b3 48bd
00000370: ae9f 89bc e154 99bd 84a8 9dbd 0f21 cc3c
00000380: c027 a63d 3fa3 0e3d 3b90 eb3c 9bed 1fbd
00000390: d246 07bc f4e2 82bd 960c 2d3d 5521 2cbd
000003a0: 45b4 02bd ac00 9abd 1877 7ebc 3918 eebc
000003b0: a892 8cbd d0e6 3739 4ff5 9a3b d58f b3bd
000003c0: 77c4 c93c 7b15 7bbd 8d64 d4bc a6de c9bc
000003d0: ae56 bfbb f41c 1dbd 34d7 a6ba 9f8c 293c
000003e0: 4f10 99bc ed7b 1e3c da2f 23bd 44cb 843c
000003f0: e3c1 ff3b 2d39 aabc 624f 56bd 22e3 e83c

linear2.bias f4 [3]
0.026386851 -0.070401296 -0.046235304
00000000: 3d29 d83c 8e2e 90bd 3b61 3dbd
